…
2020-05-25 14:26:41.398897: I tensorflow/core/common_runtime/process_util.cc:147                                                                                       ] Creating new thread pool with default inter op setting: 2. Tune using inter_op                                                                                       _parallelism_threads for best performance.
Model: "sequential_1"
_________________________________________________________________
Layer (type)                 Output Shape              Param #
=================================================================
conv2d_1 (Conv2D)            (None, 61, 61, 64)        3136
_________________________________________________________________
conv2d_2 (Conv2D)            (None, 29, 29, 64)        65600
_________________________________________________________________
dropout_1 (Dropout)          (None, 29, 29, 64)        0
_________________________________________________________________
conv2d_3 (Conv2D)            (None, 26, 26, 128)       131200
_________________________________________________________________
conv2d_4 (Conv2D)            (None, 12, 12, 128)       262272
_________________________________________________________________
dropout_2 (Dropout)          (None, 12, 12, 128)       0
_________________________________________________________________
conv2d_5 (Conv2D)            (None, 9, 9, 256)         524544
_________________________________________________________________
conv2d_6 (Conv2D)            (None, 3, 3, 256)         1048832
_________________________________________________________________
batch_normalization_1 (Batch (None, 3, 3, 256)         1024
_________________________________________________________________
flatten_1 (Flatten)          (None, 2304)              0
_________________________________________________________________
dropout_3 (Dropout)          (None, 2304)              0
_________________________________________________________________
dense_1 (Dense)              (None, 512)               1180160
_________________________________________________________________
dense_2 (Dense)              (None, 10)                5130
=================================================================
Total params: 3,221,898
Trainable params: 3,221,386
Non-trainable params: 512
_________________________________________________________________
Epoch 1/10
30/30 [==============================] - 22s 717ms/step - loss: 1.7512 - accuracy: 0.4329 - val_loss: 36.8714 - val_accuracy: 0.1500                                   741
Epoch 00001: val_loss improved from inf to 36.87136, saving model to models/su_batchnomal.h5
…
