…
2020-05-25 14:33:16.298207: I tensorflow/compiler/xla/service/service.cc:168] XLA service 0x55e9a2ffea80 initialized for platform Host (this does not guarantee that XLA will be used). Devices:
2020-05-25 14:33:16.298261: I tensorflow/compiler/xla/service/service.cc:176]   StreamExecutor device (0): Host, Default Version
2020-05-25 14:33:16.298450: I tensorflow/core/common_runtime/process_util.cc:147] Creating new thread pool with default inter op setting: 2. Tune using inter_op_parallelism_threads for best performance.
Model: "sequential_1"
_________________________________________________________________
Layer (type)                 Output Shape              Param #
=================================================================
conv2d_1 (Conv2D)            (None, 61, 61, 64)        3136
_________________________________________________________________
conv2d_2 (Conv2D)            (None, 29, 29, 64)        65600
_________________________________________________________________
dropout_1 (Dropout)          (None, 29, 29, 64)        0
_________________________________________________________________
conv2d_3 (Conv2D)            (None, 26, 26, 128)       131200
_________________________________________________________________
conv2d_4 (Conv2D)            (None, 12, 12, 128)       262272
_________________________________________________________________
dropout_2 (Dropout)          (None, 12, 12, 128)       0
_________________________________________________________________
conv2d_5 (Conv2D)            (None, 9, 9, 256)         524544
_________________________________________________________________
conv2d_6 (Conv2D)            (None, 3, 3, 256)         1048832
_________________________________________________________________
batch_normalization_1 (Batch (None, 3, 3, 256)         1024
_________________________________________________________________
flatten_1 (Flatten)          (None, 2304)              0
_________________________________________________________________
dropout_3 (Dropout)          (None, 2304)              0
_________________________________________________________________
dense_1 (Dense)              (None, 1024)              2360320
_________________________________________________________________
dense_2 (Dense)              (None, 512)               524800
_________________________________________________________________
dense_3 (Dense)              (None, 10)                5130
=================================================================
Total params: 4,926,858
Trainable params: 4,926,346
Non-trainable params: 512
_________________________________________________________________
Epoch 1/10
30/30 [==============================] - 22s 718ms/step - loss: 1.9288 - accuracy: 0.3926 - val_loss: 25.5457 - val_accuracy: 0.1000

Epoch 00001: val_loss improved from inf to 25.54573, saving model to models/su_batchnormal_dense.h5
…
